{
  "nodes": [
    {
      "op": "null", 
      "name": "data", 
      "inputs": []
    }, 
    {
      "op": "null", 
      "name": "bn_data_gamma", 
      "attr": {
        "eps": "2e-05", 
        "fix_gamma": "True", 
        "momentum": "0.9"
      }, 
      "inputs": []
    }, 
    {
      "op": "null", 
      "name": "bn_data_beta", 
      "attr": {
        "eps": "2e-05", 
        "fix_gamma": "True", 
        "momentum": "0.9"
      }, 
      "inputs": []
    }, 
    {
      "op": "null", 
      "name": "bn_data_moving_mean", 
      "attr": {
        "__init__": "[\"zero\", {}]", 
        "eps": "2e-05", 
        "fix_gamma": "True", 
        "momentum": "0.9"
      }, 
      "inputs": []
    }, 
    {
      "op": "null", 
      "name": "bn_data_moving_var", 
      "attr": {
        "__init__": "[\"one\", {}]", 
        "eps": "2e-05", 
        "fix_gamma": "True", 
        "momentum": "0.9"
      }, 
      "inputs": []
    }, 
    {
      "op": "BatchNorm", 
      "name": "bn_data", 
      "attr": {
        "eps": "2e-05", 
        "fix_gamma": "True", 
        "momentum": "0.9"
      }, 
      "inputs": [[0, 0, 0], [1, 0, 0], [2, 0, 0], [3, 0, 1], [4, 0, 1]]
    }, 
    {
      "op": "null", 
      "name": "xconv0_weight", 
      "attr": {
        "kernel": "(7, 7)", 
        "no_bias": "True", 
        "num_filter": "64", 
        "pad": "(3, 3)", 
        "stride": "(2, 2)", 
        "workspace": "512"
      }, 
      "inputs": []
    }, 
    {
      "op": "Convolution", 
      "name": "xconv0", 
      "attr": {
        "kernel": "(7, 7)", 
        "no_bias": "True", 
        "num_filter": "64", 
        "pad": "(3, 3)", 
        "stride": "(2, 2)", 
        "workspace": "512"
      }, 
      "inputs": [[5, 0, 0], [6, 0, 0]]
    }, 
    {
      "op": "null", 
      "name": "stage1_unit1_bn1_gamma", 
      "attr": {
        "eps": "2e-05", 
        "fix_gamma": "False", 
        "momentum": "0.9"
      }, 
      "inputs": []
    }, 
    {
      "op": "null", 
      "name": "stage1_unit1_bn1_beta", 
      "attr": {
        "eps": "2e-05", 
        "fix_gamma": "False", 
        "momentum": "0.9"
      }, 
      "inputs": []
    }, 
    {
      "op": "null", 
      "name": "stage1_unit1_bn1_moving_mean", 
      "attr": {
        "__init__": "[\"zero\", {}]", 
        "eps": "2e-05", 
        "fix_gamma": "False", 
        "momentum": "0.9"
      }, 
      "inputs": []
    }, 
    {
      "op": "null", 
      "name": "stage1_unit1_bn1_moving_var", 
      "attr": {
        "__init__": "[\"one\", {}]", 
        "eps": "2e-05", 
        "fix_gamma": "False", 
        "momentum": "0.9"
      }, 
      "inputs": []
    }, 
    {
      "op": "BatchNorm", 
      "name": "stage1_unit1_bn1", 
      "attr": {
        "eps": "2e-05", 
        "fix_gamma": "False", 
        "momentum": "0.9"
      }, 
      "inputs": [[7, 0, 0], [8, 0, 0], [9, 0, 0], [10, 0, 1], [11, 0, 1]]
    }, 
    {
      "op": "Activation", 
      "name": "stage1_unit1_relu1", 
      "attr": {"act_type": "relu"}, 
      "inputs": [[12, 0, 0]]
    }, 
    {
      "op": "null", 
      "name": "stage1_unit1_relu1_cls_pred_conv_weight", 
      "attr": {
        "kernel": "(3, 3)", 
        "num_filter": "24", 
        "pad": "(1, 1)", 
        "stride": "(1, 1)"
      }, 
      "inputs": []
    }, 
    {
      "op": "null", 
      "name": "stage1_unit1_relu1_cls_pred_conv_bias", 
      "attr": {
        "__init__": "[\"constant\", {\"value\": 0.0}]", 
        "__lr_mult__": "2.0"
      }, 
      "inputs": []
    }, 
    {
      "op": "Convolution", 
      "name": "stage1_unit1_relu1_cls_pred_conv", 
      "attr": {
        "kernel": "(3, 3)", 
        "num_filter": "24", 
        "pad": "(1, 1)", 
        "stride": "(1, 1)"
      }, 
      "inputs": [[13, 0, 0], [14, 0, 0], [15, 0, 0]]
    }, 
    {
      "op": "transpose", 
      "name": "transpose1", 
      "attr": {"axes": "(0, 2, 3, 1)"}, 
      "inputs": [[16, 0, 0]]
    }, 
    {
      "op": "Flatten", 
      "name": "flatten1", 
      "inputs": [[17, 0, 0]]
    }, 
    {
      "op": "null", 
      "name": "stage1_unit1_conv1_weight", 
      "attr": {
        "kernel": "(1, 1)", 
        "no_bias": "True", 
        "num_filter": "64", 
        "pad": "(0, 0)", 
        "stride": "(1, 1)", 
        "workspace": "512"
      }, 
      "inputs": []
    }, 
    {
      "op": "Convolution", 
      "name": "stage1_unit1_conv1", 
      "attr": {
        "kernel": "(1, 1)", 
        "no_bias": "True", 
        "num_filter": "64", 
        "pad": "(0, 0)", 
        "stride": "(1, 1)", 
        "workspace": "512"
      }, 
      "inputs": [[13, 0, 0], [19, 0, 0]]
    }, 
    {
      "op": "null", 
      "name": "stage1_unit1_bn2_gamma", 
      "attr": {
        "eps": "2e-05", 
        "fix_gamma": "False", 
        "momentum": "0.9"
      }, 
      "inputs": []
    }, 
    {
      "op": "null", 
      "name": "stage1_unit1_bn2_beta", 
      "attr": {
        "eps": "2e-05", 
        "fix_gamma": "False", 
        "momentum": "0.9"
      }, 
      "inputs": []
    }, 
    {
      "op": "null", 
      "name": "stage1_unit1_bn2_moving_mean", 
      "attr": {
        "__init__": "[\"zero\", {}]", 
        "eps": "2e-05", 
        "fix_gamma": "False", 
        "momentum": "0.9"
      }, 
      "inputs": []
    }, 
    {
      "op": "null", 
      "name": "stage1_unit1_bn2_moving_var", 
      "attr": {
        "__init__": "[\"one\", {}]", 
        "eps": "2e-05", 
        "fix_gamma": "False", 
        "momentum": "0.9"
      }, 
      "inputs": []
    }, 
    {
      "op": "BatchNorm", 
      "name": "stage1_unit1_bn2", 
      "attr": {
        "eps": "2e-05", 
        "fix_gamma": "False", 
        "momentum": "0.9"
      }, 
      "inputs": [[20, 0, 0], [21, 0, 0], [22, 0, 0], [23, 0, 1], [24, 0, 1]]
    }, 
    {
      "op": "Activation", 
      "name": "stage1_unit1_relu2", 
      "attr": {"act_type": "relu"}, 
      "inputs": [[25, 0, 0]]
    }, 
    {
      "op": "null", 
      "name": "stage1_unit1_conv2_weight", 
      "attr": {
        "kernel": "(3, 3)", 
        "no_bias": "True", 
        "num_filter": "64", 
        "pad": "(1, 1)", 
        "stride": "(2, 2)", 
        "workspace": "512"
      }, 
      "inputs": []
    }, 
    {
      "op": "Convolution", 
      "name": "stage1_unit1_conv2", 
      "attr": {
        "kernel": "(3, 3)", 
        "no_bias": "True", 
        "num_filter": "64", 
        "pad": "(1, 1)", 
        "stride": "(2, 2)", 
        "workspace": "512"
      }, 
      "inputs": [[26, 0, 0], [27, 0, 0]]
    }, 
    {
      "op": "null", 
      "name": "stage1_unit1_bn3_gamma", 
      "attr": {
        "eps": "2e-05", 
        "fix_gamma": "False", 
        "momentum": "0.9"
      }, 
      "inputs": []
    }, 
    {
      "op": "null", 
      "name": "stage1_unit1_bn3_beta", 
      "attr": {
        "eps": "2e-05", 
        "fix_gamma": "False", 
        "momentum": "0.9"
      }, 
      "inputs": []
    }, 
    {
      "op": "null", 
      "name": "stage1_unit1_bn3_moving_mean", 
      "attr": {
        "__init__": "[\"zero\", {}]", 
        "eps": "2e-05", 
        "fix_gamma": "False", 
        "momentum": "0.9"
      }, 
      "inputs": []
    }, 
    {
      "op": "null", 
      "name": "stage1_unit1_bn3_moving_var", 
      "attr": {
        "__init__": "[\"one\", {}]", 
        "eps": "2e-05", 
        "fix_gamma": "False", 
        "momentum": "0.9"
      }, 
      "inputs": []
    }, 
    {
      "op": "BatchNorm", 
      "name": "stage1_unit1_bn3", 
      "attr": {
        "eps": "2e-05", 
        "fix_gamma": "False", 
        "momentum": "0.9"
      }, 
      "inputs": [[28, 0, 0], [29, 0, 0], [30, 0, 0], [31, 0, 1], [32, 0, 1]]
    }, 
    {
      "op": "Activation", 
      "name": "stage1_unit1_relu3", 
      "attr": {"act_type": "relu"}, 
      "inputs": [[33, 0, 0]]
    }, 
    {
      "op": "null", 
      "name": "stage1_unit1_conv3_weight", 
      "attr": {
        "kernel": "(1, 1)", 
        "no_bias": "True", 
        "num_filter": "256", 
        "pad": "(0, 0)", 
        "stride": "(1, 1)", 
        "workspace": "512"
      }, 
      "inputs": []
    }, 
    {
      "op": "Convolution", 
      "name": "stage1_unit1_conv3", 
      "attr": {
        "kernel": "(1, 1)", 
        "no_bias": "True", 
        "num_filter": "256", 
        "pad": "(0, 0)", 
        "stride": "(1, 1)", 
        "workspace": "512"
      }, 
      "inputs": [[34, 0, 0], [35, 0, 0]]
    }, 
    {
      "op": "null", 
      "name": "stage1_unit1_sc_weight", 
      "attr": {
        "kernel": "(1, 1)", 
        "no_bias": "True", 
        "num_filter": "256", 
        "stride": "(2, 2)", 
        "workspace": "512"
      }, 
      "inputs": []
    }, 
    {
      "op": "Convolution", 
      "name": "stage1_unit1_sc", 
      "attr": {
        "kernel": "(1, 1)", 
        "no_bias": "True", 
        "num_filter": "256", 
        "stride": "(2, 2)", 
        "workspace": "512"
      }, 
      "inputs": [[13, 0, 0], [37, 0, 0]]
    }, 
    {
      "op": "elemwise_add", 
      "name": "_plus0", 
      "inputs": [[36, 0, 0], [38, 0, 0]]
    }, 
    {
      "op": "null", 
      "name": "stage1_unit2_bn1_gamma", 
      "attr": {
        "eps": "2e-05", 
        "fix_gamma": "False", 
        "momentum": "0.9"
      }, 
      "inputs": []
    }, 
    {
      "op": "null", 
      "name": "stage1_unit2_bn1_beta", 
      "attr": {
        "eps": "2e-05", 
        "fix_gamma": "False", 
        "momentum": "0.9"
      }, 
      "inputs": []
    }, 
    {
      "op": "null", 
      "name": "stage1_unit2_bn1_moving_mean", 
      "attr": {
        "__init__": "[\"zero\", {}]", 
        "eps": "2e-05", 
        "fix_gamma": "False", 
        "momentum": "0.9"
      }, 
      "inputs": []
    }, 
    {
      "op": "null", 
      "name": "stage1_unit2_bn1_moving_var", 
      "attr": {
        "__init__": "[\"one\", {}]", 
        "eps": "2e-05", 
        "fix_gamma": "False", 
        "momentum": "0.9"
      }, 
      "inputs": []
    }, 
    {
      "op": "BatchNorm", 
      "name": "stage1_unit2_bn1", 
      "attr": {
        "eps": "2e-05", 
        "fix_gamma": "False", 
        "momentum": "0.9"
      }, 
      "inputs": [[39, 0, 0], [40, 0, 0], [41, 0, 0], [42, 0, 1], [43, 0, 1]]
    }, 
    {
      "op": "Activation", 
      "name": "stage1_unit2_relu1", 
      "attr": {"act_type": "relu"}, 
      "inputs": [[44, 0, 0]]
    }, 
    {
      "op": "null", 
      "name": "stage1_unit2_conv1_weight", 
      "attr": {
        "kernel": "(1, 1)", 
        "no_bias": "True", 
        "num_filter": "64", 
        "pad": "(0, 0)", 
        "stride": "(1, 1)", 
        "workspace": "512"
      }, 
      "inputs": []
    }, 
    {
      "op": "Convolution", 
      "name": "stage1_unit2_conv1", 
      "attr": {
        "kernel": "(1, 1)", 
        "no_bias": "True", 
        "num_filter": "64", 
        "pad": "(0, 0)", 
        "stride": "(1, 1)", 
        "workspace": "512"
      }, 
      "inputs": [[45, 0, 0], [46, 0, 0]]
    }, 
    {
      "op": "null", 
      "name": "stage1_unit2_bn2_gamma", 
      "attr": {
        "eps": "2e-05", 
        "fix_gamma": "False", 
        "momentum": "0.9"
      }, 
      "inputs": []
    }, 
    {
      "op": "null", 
      "name": "stage1_unit2_bn2_beta", 
      "attr": {
        "eps": "2e-05", 
        "fix_gamma": "False", 
        "momentum": "0.9"
      }, 
      "inputs": []
    }, 
    {
      "op": "null", 
      "name": "stage1_unit2_bn2_moving_mean", 
      "attr": {
        "__init__": "[\"zero\", {}]", 
        "eps": "2e-05", 
        "fix_gamma": "False", 
        "momentum": "0.9"
      }, 
      "inputs": []
    }, 
    {
      "op": "null", 
      "name": "stage1_unit2_bn2_moving_var", 
      "attr": {
        "__init__": "[\"one\", {}]", 
        "eps": "2e-05", 
        "fix_gamma": "False", 
        "momentum": "0.9"
      }, 
      "inputs": []
    }, 
    {
      "op": "BatchNorm", 
      "name": "stage1_unit2_bn2", 
      "attr": {
        "eps": "2e-05", 
        "fix_gamma": "False", 
        "momentum": "0.9"
      }, 
      "inputs": [[47, 0, 0], [48, 0, 0], [49, 0, 0], [50, 0, 1], [51, 0, 1]]
    }, 
    {
      "op": "Activation", 
      "name": "stage1_unit2_relu2", 
      "attr": {"act_type": "relu"}, 
      "inputs": [[52, 0, 0]]
    }, 
    {
      "op": "null", 
      "name": "stage1_unit2_conv2_weight", 
      "attr": {
        "kernel": "(3, 3)", 
        "no_bias": "True", 
        "num_filter": "64", 
        "pad": "(1, 1)", 
        "stride": "(1, 1)", 
        "workspace": "512"
      }, 
      "inputs": []
    }, 
    {
      "op": "Convolution", 
      "name": "stage1_unit2_conv2", 
      "attr": {
        "kernel": "(3, 3)", 
        "no_bias": "True", 
        "num_filter": "64", 
        "pad": "(1, 1)", 
        "stride": "(1, 1)", 
        "workspace": "512"
      }, 
      "inputs": [[53, 0, 0], [54, 0, 0]]
    }, 
    {
      "op": "null", 
      "name": "stage1_unit2_bn3_gamma", 
      "attr": {
        "eps": "2e-05", 
        "fix_gamma": "False", 
        "momentum": "0.9"
      }, 
      "inputs": []
    }, 
    {
      "op": "null", 
      "name": "stage1_unit2_bn3_beta", 
      "attr": {
        "eps": "2e-05", 
        "fix_gamma": "False", 
        "momentum": "0.9"
      }, 
      "inputs": []
    }, 
    {
      "op": "null", 
      "name": "stage1_unit2_bn3_moving_mean", 
      "attr": {
        "__init__": "[\"zero\", {}]", 
        "eps": "2e-05", 
        "fix_gamma": "False", 
        "momentum": "0.9"
      }, 
      "inputs": []
    }, 
    {
      "op": "null", 
      "name": "stage1_unit2_bn3_moving_var", 
      "attr": {
        "__init__": "[\"one\", {}]", 
        "eps": "2e-05", 
        "fix_gamma": "False", 
        "momentum": "0.9"
      }, 
      "inputs": []
    }, 
    {
      "op": "BatchNorm", 
      "name": "stage1_unit2_bn3", 
      "attr": {
        "eps": "2e-05", 
        "fix_gamma": "False", 
        "momentum": "0.9"
      }, 
      "inputs": [[55, 0, 0], [56, 0, 0], [57, 0, 0], [58, 0, 1], [59, 0, 1]]
    }, 
    {
      "op": "Activation", 
      "name": "stage1_unit2_relu3", 
      "attr": {"act_type": "relu"}, 
      "inputs": [[60, 0, 0]]
    }, 
    {
      "op": "null", 
      "name": "stage1_unit2_conv3_weight", 
      "attr": {
        "kernel": "(1, 1)", 
        "no_bias": "True", 
        "num_filter": "256", 
        "pad": "(0, 0)", 
        "stride": "(1, 1)", 
        "workspace": "512"
      }, 
      "inputs": []
    }, 
    {
      "op": "Convolution", 
      "name": "stage1_unit2_conv3", 
      "attr": {
        "kernel": "(1, 1)", 
        "no_bias": "True", 
        "num_filter": "256", 
        "pad": "(0, 0)", 
        "stride": "(1, 1)", 
        "workspace": "512"
      }, 
      "inputs": [[61, 0, 0], [62, 0, 0]]
    }, 
    {
      "op": "elemwise_add", 
      "name": "_plus1", 
      "inputs": [[63, 0, 0], [39, 0, 0]]
    }, 
    {
      "op": "null", 
      "name": "stage1_unit3_bn1_gamma", 
      "attr": {
        "eps": "2e-05", 
        "fix_gamma": "False", 
        "momentum": "0.9"
      }, 
      "inputs": []
    }, 
    {
      "op": "null", 
      "name": "stage1_unit3_bn1_beta", 
      "attr": {
        "eps": "2e-05", 
        "fix_gamma": "False", 
        "momentum": "0.9"
      }, 
      "inputs": []
    }, 
    {
      "op": "null", 
      "name": "stage1_unit3_bn1_moving_mean", 
      "attr": {
        "__init__": "[\"zero\", {}]", 
        "eps": "2e-05", 
        "fix_gamma": "False", 
        "momentum": "0.9"
      }, 
      "inputs": []
    }, 
    {
      "op": "null", 
      "name": "stage1_unit3_bn1_moving_var", 
      "attr": {
        "__init__": "[\"one\", {}]", 
        "eps": "2e-05", 
        "fix_gamma": "False", 
        "momentum": "0.9"
      }, 
      "inputs": []
    }, 
    {
      "op": "BatchNorm", 
      "name": "stage1_unit3_bn1", 
      "attr": {
        "eps": "2e-05", 
        "fix_gamma": "False", 
        "momentum": "0.9"
      }, 
      "inputs": [[64, 0, 0], [65, 0, 0], [66, 0, 0], [67, 0, 1], [68, 0, 1]]
    }, 
    {
      "op": "Activation", 
      "name": "stage1_unit3_relu1", 
      "attr": {"act_type": "relu"}, 
      "inputs": [[69, 0, 0]]
    }, 
    {
      "op": "null", 
      "name": "stage1_unit3_conv1_weight", 
      "attr": {
        "kernel": "(1, 1)", 
        "no_bias": "True", 
        "num_filter": "64", 
        "pad": "(0, 0)", 
        "stride": "(1, 1)", 
        "workspace": "512"
      }, 
      "inputs": []
    }, 
    {
      "op": "Convolution", 
      "name": "stage1_unit3_conv1", 
      "attr": {
        "kernel": "(1, 1)", 
        "no_bias": "True", 
        "num_filter": "64", 
        "pad": "(0, 0)", 
        "stride": "(1, 1)", 
        "workspace": "512"
      }, 
      "inputs": [[70, 0, 0], [71, 0, 0]]
    }, 
    {
      "op": "null", 
      "name": "stage1_unit3_bn2_gamma", 
      "attr": {
        "eps": "2e-05", 
        "fix_gamma": "False", 
        "momentum": "0.9"
      }, 
      "inputs": []
    }, 
    {
      "op": "null", 
      "name": "stage1_unit3_bn2_beta", 
      "attr": {
        "eps": "2e-05", 
        "fix_gamma": "False", 
        "momentum": "0.9"
      }, 
      "inputs": []
    }, 
    {
      "op": "null", 
      "name": "stage1_unit3_bn2_moving_mean", 
      "attr": {
        "__init__": "[\"zero\", {}]", 
        "eps": "2e-05", 
        "fix_gamma": "False", 
        "momentum": "0.9"
      }, 
      "inputs": []
    }, 
    {
      "op": "null", 
      "name": "stage1_unit3_bn2_moving_var", 
      "attr": {
        "__init__": "[\"one\", {}]", 
        "eps": "2e-05", 
        "fix_gamma": "False", 
        "momentum": "0.9"
      }, 
      "inputs": []
    }, 
    {
      "op": "BatchNorm", 
      "name": "stage1_unit3_bn2", 
      "attr": {
        "eps": "2e-05", 
        "fix_gamma": "False", 
        "momentum": "0.9"
      }, 
      "inputs": [[72, 0, 0], [73, 0, 0], [74, 0, 0], [75, 0, 1], [76, 0, 1]]
    }, 
    {
      "op": "Activation", 
      "name": "stage1_unit3_relu2", 
      "attr": {"act_type": "relu"}, 
      "inputs": [[77, 0, 0]]
    }, 
    {
      "op": "null", 
      "name": "stage1_unit3_conv2_weight", 
      "attr": {
        "kernel": "(3, 3)", 
        "no_bias": "True", 
        "num_filter": "64", 
        "pad": "(1, 1)", 
        "stride": "(1, 1)", 
        "workspace": "512"
      }, 
      "inputs": []
    }, 
    {
      "op": "Convolution", 
      "name": "stage1_unit3_conv2", 
      "attr": {
        "kernel": "(3, 3)", 
        "no_bias": "True", 
        "num_filter": "64", 
        "pad": "(1, 1)", 
        "stride": "(1, 1)", 
        "workspace": "512"
      }, 
      "inputs": [[78, 0, 0], [79, 0, 0]]
    }, 
    {
      "op": "null", 
      "name": "stage1_unit3_bn3_gamma", 
      "attr": {
        "eps": "2e-05", 
        "fix_gamma": "False", 
        "momentum": "0.9"
      }, 
      "inputs": []
    }, 
    {
      "op": "null", 
      "name": "stage1_unit3_bn3_beta", 
      "attr": {
        "eps": "2e-05", 
        "fix_gamma": "False", 
        "momentum": "0.9"
      }, 
      "inputs": []
    }, 
    {
      "op": "null", 
      "name": "stage1_unit3_bn3_moving_mean", 
      "attr": {
        "__init__": "[\"zero\", {}]", 
        "eps": "2e-05", 
        "fix_gamma": "False", 
        "momentum": "0.9"
      }, 
      "inputs": []
    }, 
    {
      "op": "null", 
      "name": "stage1_unit3_bn3_moving_var", 
      "attr": {
        "__init__": "[\"one\", {}]", 
        "eps": "2e-05", 
        "fix_gamma": "False", 
        "momentum": "0.9"
      }, 
      "inputs": []
    }, 
    {
      "op": "BatchNorm", 
      "name": "stage1_unit3_bn3", 
      "attr": {
        "eps": "2e-05", 
        "fix_gamma": "False", 
        "momentum": "0.9"
      }, 
      "inputs": [[80, 0, 0], [81, 0, 0], [82, 0, 0], [83, 0, 1], [84, 0, 1]]
    }, 
    {
      "op": "Activation", 
      "name": "stage1_unit3_relu3", 
      "attr": {"act_type": "relu"}, 
      "inputs": [[85, 0, 0]]
    }, 
    {
      "op": "null", 
      "name": "stage1_unit3_conv3_weight", 
      "attr": {
        "kernel": "(1, 1)", 
        "no_bias": "True", 
        "num_filter": "256", 
        "pad": "(0, 0)", 
        "stride": "(1, 1)", 
        "workspace": "512"
      }, 
      "inputs": []
    }, 
    {
      "op": "Convolution", 
      "name": "stage1_unit3_conv3", 
      "attr": {
        "kernel": "(1, 1)", 
        "no_bias": "True", 
        "num_filter": "256", 
        "pad": "(0, 0)", 
        "stride": "(1, 1)", 
        "workspace": "512"
      }, 
      "inputs": [[86, 0, 0], [87, 0, 0]]
    }, 
    {
      "op": "elemwise_add", 
      "name": "_plus2", 
      "inputs": [[88, 0, 0], [64, 0, 0]]
    }, 
    {
      "op": "null", 
      "name": "stage2_unit1_bn1_gamma", 
      "attr": {
        "eps": "2e-05", 
        "fix_gamma": "False", 
        "momentum": "0.9"
      }, 
      "inputs": []
    }, 
    {
      "op": "null", 
      "name": "stage2_unit1_bn1_beta", 
      "attr": {
        "eps": "2e-05", 
        "fix_gamma": "False", 
        "momentum": "0.9"
      }, 
      "inputs": []
    }, 
    {
      "op": "null", 
      "name": "stage2_unit1_bn1_moving_mean", 
      "attr": {
        "__init__": "[\"zero\", {}]", 
        "eps": "2e-05", 
        "fix_gamma": "False", 
        "momentum": "0.9"
      }, 
      "inputs": []
    }, 
    {
      "op": "null", 
      "name": "stage2_unit1_bn1_moving_var", 
      "attr": {
        "__init__": "[\"one\", {}]", 
        "eps": "2e-05", 
        "fix_gamma": "False", 
        "momentum": "0.9"
      }, 
      "inputs": []
    }, 
    {
      "op": "BatchNorm", 
      "name": "stage2_unit1_bn1", 
      "attr": {
        "eps": "2e-05", 
        "fix_gamma": "False", 
        "momentum": "0.9"
      }, 
      "inputs": [[89, 0, 0], [90, 0, 0], [91, 0, 0], [92, 0, 1], [93, 0, 1]]
    }, 
    {
      "op": "Activation", 
      "name": "stage2_unit1_relu1", 
      "attr": {"act_type": "relu"}, 
      "inputs": [[94, 0, 0]]
    }, 
    {
      "op": "null", 
      "name": "stage2_unit1_relu1_cls_pred_conv_weight", 
      "attr": {
        "kernel": "(3, 3)", 
        "num_filter": "24", 
        "pad": "(1, 1)", 
        "stride": "(1, 1)"
      }, 
      "inputs": []
    }, 
    {
      "op": "null", 
      "name": "stage2_unit1_relu1_cls_pred_conv_bias", 
      "attr": {
        "__init__": "[\"constant\", {\"value\": 0.0}]", 
        "__lr_mult__": "2.0"
      }, 
      "inputs": []
    }, 
    {
      "op": "Convolution", 
      "name": "stage2_unit1_relu1_cls_pred_conv", 
      "attr": {
        "kernel": "(3, 3)", 
        "num_filter": "24", 
        "pad": "(1, 1)", 
        "stride": "(1, 1)"
      }, 
      "inputs": [[95, 0, 0], [96, 0, 0], [97, 0, 0]]
    }, 
    {
      "op": "transpose", 
      "name": "transpose3", 
      "attr": {"axes": "(0, 2, 3, 1)"}, 
      "inputs": [[98, 0, 0]]
    }, 
    {
      "op": "Flatten", 
      "name": "flatten4", 
      "inputs": [[99, 0, 0]]
    }, 
    {
      "op": "null", 
      "name": "stage2_unit1_conv1_weight", 
      "attr": {
        "kernel": "(1, 1)", 
        "no_bias": "True", 
        "num_filter": "128", 
        "pad": "(0, 0)", 
        "stride": "(1, 1)", 
        "workspace": "512"
      }, 
      "inputs": []
    }, 
    {
      "op": "Convolution", 
      "name": "stage2_unit1_conv1", 
      "attr": {
        "kernel": "(1, 1)", 
        "no_bias": "True", 
        "num_filter": "128", 
        "pad": "(0, 0)", 
        "stride": "(1, 1)", 
        "workspace": "512"
      }, 
      "inputs": [[95, 0, 0], [101, 0, 0]]
    }, 
    {
      "op": "null", 
      "name": "stage2_unit1_bn2_gamma", 
      "attr": {
        "eps": "2e-05", 
        "fix_gamma": "False", 
        "momentum": "0.9"
      }, 
      "inputs": []
    }, 
    {
      "op": "null", 
      "name": "stage2_unit1_bn2_beta", 
      "attr": {
        "eps": "2e-05", 
        "fix_gamma": "False", 
        "momentum": "0.9"
      }, 
      "inputs": []
    }, 
    {
      "op": "null", 
      "name": "stage2_unit1_bn2_moving_mean", 
      "attr": {
        "__init__": "[\"zero\", {}]", 
        "eps": "2e-05", 
        "fix_gamma": "False", 
        "momentum": "0.9"
      }, 
      "inputs": []
    }, 
    {
      "op": "null", 
      "name": "stage2_unit1_bn2_moving_var", 
      "attr": {
        "__init__": "[\"one\", {}]", 
        "eps": "2e-05", 
        "fix_gamma": "False", 
        "momentum": "0.9"
      }, 
      "inputs": []
    }, 
    {
      "op": "BatchNorm", 
      "name": "stage2_unit1_bn2", 
      "attr": {
        "eps": "2e-05", 
        "fix_gamma": "False", 
        "momentum": "0.9"
      }, 
      "inputs": [[102, 0, 0], [103, 0, 0], [104, 0, 0], [105, 0, 1], [106, 0, 1]]
    }, 
    {
      "op": "Activation", 
      "name": "stage2_unit1_relu2", 
      "attr": {"act_type": "relu"}, 
      "inputs": [[107, 0, 0]]
    }, 
    {
      "op": "null", 
      "name": "stage2_unit1_conv2_weight", 
      "attr": {
        "kernel": "(3, 3)", 
        "no_bias": "True", 
        "num_filter": "128", 
        "pad": "(1, 1)", 
        "stride": "(2, 2)", 
        "workspace": "512"
      }, 
      "inputs": []
    }, 
    {
      "op": "Convolution", 
      "name": "stage2_unit1_conv2", 
      "attr": {
        "kernel": "(3, 3)", 
        "no_bias": "True", 
        "num_filter": "128", 
        "pad": "(1, 1)", 
        "stride": "(2, 2)", 
        "workspace": "512"
      }, 
      "inputs": [[108, 0, 0], [109, 0, 0]]
    }, 
    {
      "op": "null", 
      "name": "stage2_unit1_bn3_gamma", 
      "attr": {
        "eps": "2e-05", 
        "fix_gamma": "False", 
        "momentum": "0.9"
      }, 
      "inputs": []
    }, 
    {
      "op": "null", 
      "name": "stage2_unit1_bn3_beta", 
      "attr": {
        "eps": "2e-05", 
        "fix_gamma": "False", 
        "momentum": "0.9"
      }, 
      "inputs": []
    }, 
    {
      "op": "null", 
      "name": "stage2_unit1_bn3_moving_mean", 
      "attr": {
        "__init__": "[\"zero\", {}]", 
        "eps": "2e-05", 
        "fix_gamma": "False", 
        "momentum": "0.9"
      }, 
      "inputs": []
    }, 
    {
      "op": "null", 
      "name": "stage2_unit1_bn3_moving_var", 
      "attr": {
        "__init__": "[\"one\", {}]", 
        "eps": "2e-05", 
        "fix_gamma": "False", 
        "momentum": "0.9"
      }, 
      "inputs": []
    }, 
    {
      "op": "BatchNorm", 
      "name": "stage2_unit1_bn3", 
      "attr": {
        "eps": "2e-05", 
        "fix_gamma": "False", 
        "momentum": "0.9"
      }, 
      "inputs": [[110, 0, 0], [111, 0, 0], [112, 0, 0], [113, 0, 1], [114, 0, 1]]
    }, 
    {
      "op": "Activation", 
      "name": "stage2_unit1_relu3", 
      "attr": {"act_type": "relu"}, 
      "inputs": [[115, 0, 0]]
    }, 
    {
      "op": "null", 
      "name": "stage2_unit1_conv3_weight", 
      "attr": {
        "kernel": "(1, 1)", 
        "no_bias": "True", 
        "num_filter": "512", 
        "pad": "(0, 0)", 
        "stride": "(1, 1)", 
        "workspace": "512"
      }, 
      "inputs": []
    }, 
    {
      "op": "Convolution", 
      "name": "stage2_unit1_conv3", 
      "attr": {
        "kernel": "(1, 1)", 
        "no_bias": "True", 
        "num_filter": "512", 
        "pad": "(0, 0)", 
        "stride": "(1, 1)", 
        "workspace": "512"
      }, 
      "inputs": [[116, 0, 0], [117, 0, 0]]
    }, 
    {
      "op": "null", 
      "name": "stage2_unit1_sc_weight", 
      "attr": {
        "kernel": "(1, 1)", 
        "no_bias": "True", 
        "num_filter": "512", 
        "stride": "(2, 2)", 
        "workspace": "512"
      }, 
      "inputs": []
    }, 
    {
      "op": "Convolution", 
      "name": "stage2_unit1_sc", 
      "attr": {
        "kernel": "(1, 1)", 
        "no_bias": "True", 
        "num_filter": "512", 
        "stride": "(2, 2)", 
        "workspace": "512"
      }, 
      "inputs": [[95, 0, 0], [119, 0, 0]]
    }, 
    {
      "op": "elemwise_add", 
      "name": "_plus3", 
      "inputs": [[118, 0, 0], [120, 0, 0]]
    }, 
    {
      "op": "null", 
      "name": "stage2_unit2_bn1_gamma", 
      "attr": {
        "eps": "2e-05", 
        "fix_gamma": "False", 
        "momentum": "0.9"
      }, 
      "inputs": []
    }, 
    {
      "op": "null", 
      "name": "stage2_unit2_bn1_beta", 
      "attr": {
        "eps": "2e-05", 
        "fix_gamma": "False", 
        "momentum": "0.9"
      }, 
      "inputs": []
    }, 
    {
      "op": "null", 
      "name": "stage2_unit2_bn1_moving_mean", 
      "attr": {
        "__init__": "[\"zero\", {}]", 
        "eps": "2e-05", 
        "fix_gamma": "False", 
        "momentum": "0.9"
      }, 
      "inputs": []
    }, 
    {
      "op": "null", 
      "name": "stage2_unit2_bn1_moving_var", 
      "attr": {
        "__init__": "[\"one\", {}]", 
        "eps": "2e-05", 
        "fix_gamma": "False", 
        "momentum": "0.9"
      }, 
      "inputs": []
    }, 
    {
      "op": "BatchNorm", 
      "name": "stage2_unit2_bn1", 
      "attr": {
        "eps": "2e-05", 
        "fix_gamma": "False", 
        "momentum": "0.9"
      }, 
      "inputs": [[121, 0, 0], [122, 0, 0], [123, 0, 0], [124, 0, 1], [125, 0, 1]]
    }, 
    {
      "op": "Activation", 
      "name": "stage2_unit2_relu1", 
      "attr": {"act_type": "relu"}, 
      "inputs": [[126, 0, 0]]
    }, 
    {
      "op": "null", 
      "name": "stage2_unit2_conv1_weight", 
      "attr": {
        "kernel": "(1, 1)", 
        "no_bias": "True", 
        "num_filter": "128", 
        "pad": "(0, 0)", 
        "stride": "(1, 1)", 
        "workspace": "512"
      }, 
      "inputs": []
    }, 
    {
      "op": "Convolution", 
      "name": "stage2_unit2_conv1", 
      "attr": {
        "kernel": "(1, 1)", 
        "no_bias": "True", 
        "num_filter": "128", 
        "pad": "(0, 0)", 
        "stride": "(1, 1)", 
        "workspace": "512"
      }, 
      "inputs": [[127, 0, 0], [128, 0, 0]]
    }, 
    {
      "op": "null", 
      "name": "stage2_unit2_bn2_gamma", 
      "attr": {
        "eps": "2e-05", 
        "fix_gamma": "False", 
        "momentum": "0.9"
      }, 
      "inputs": []
    }, 
    {
      "op": "null", 
      "name": "stage2_unit2_bn2_beta", 
      "attr": {
        "eps": "2e-05", 
        "fix_gamma": "False", 
        "momentum": "0.9"
      }, 
      "inputs": []
    }, 
    {
      "op": "null", 
      "name": "stage2_unit2_bn2_moving_mean", 
      "attr": {
        "__init__": "[\"zero\", {}]", 
        "eps": "2e-05", 
        "fix_gamma": "False", 
        "momentum": "0.9"
      }, 
      "inputs": []
    }, 
    {
      "op": "null", 
      "name": "stage2_unit2_bn2_moving_var", 
      "attr": {
        "__init__": "[\"one\", {}]", 
        "eps": "2e-05", 
        "fix_gamma": "False", 
        "momentum": "0.9"
      }, 
      "inputs": []
    }, 
    {
      "op": "BatchNorm", 
      "name": "stage2_unit2_bn2", 
      "attr": {
        "eps": "2e-05", 
        "fix_gamma": "False", 
        "momentum": "0.9"
      }, 
      "inputs": [[129, 0, 0], [130, 0, 0], [131, 0, 0], [132, 0, 1], [133, 0, 1]]
    }, 
    {
      "op": "Activation", 
      "name": "stage2_unit2_relu2", 
      "attr": {"act_type": "relu"}, 
      "inputs": [[134, 0, 0]]
    }, 
    {
      "op": "null", 
      "name": "stage2_unit2_conv2_weight", 
      "attr": {
        "kernel": "(3, 3)", 
        "no_bias": "True", 
        "num_filter": "128", 
        "pad": "(1, 1)", 
        "stride": "(1, 1)", 
        "workspace": "512"
      }, 
      "inputs": []
    }, 
    {
      "op": "Convolution", 
      "name": "stage2_unit2_conv2", 
      "attr": {
        "kernel": "(3, 3)", 
        "no_bias": "True", 
        "num_filter": "128", 
        "pad": "(1, 1)", 
        "stride": "(1, 1)", 
        "workspace": "512"
      }, 
      "inputs": [[135, 0, 0], [136, 0, 0]]
    }, 
    {
      "op": "null", 
      "name": "stage2_unit2_bn3_gamma", 
      "attr": {
        "eps": "2e-05", 
        "fix_gamma": "False", 
        "momentum": "0.9"
      }, 
      "inputs": []
    }, 
    {
      "op": "null", 
      "name": "stage2_unit2_bn3_beta", 
      "attr": {
        "eps": "2e-05", 
        "fix_gamma": "False", 
        "momentum": "0.9"
      }, 
      "inputs": []
    }, 
    {
      "op": "null", 
      "name": "stage2_unit2_bn3_moving_mean", 
      "attr": {
        "__init__": "[\"zero\", {}]", 
        "eps": "2e-05", 
        "fix_gamma": "False", 
        "momentum": "0.9"
      }, 
      "inputs": []
    }, 
    {
      "op": "null", 
      "name": "stage2_unit2_bn3_moving_var", 
      "attr": {
        "__init__": "[\"one\", {}]", 
        "eps": "2e-05", 
        "fix_gamma": "False", 
        "momentum": "0.9"
      }, 
      "inputs": []
    }, 
    {
      "op": "BatchNorm", 
      "name": "stage2_unit2_bn3", 
      "attr": {
        "eps": "2e-05", 
        "fix_gamma": "False", 
        "momentum": "0.9"
      }, 
      "inputs": [[137, 0, 0], [138, 0, 0], [139, 0, 0], [140, 0, 1], [141, 0, 1]]
    }, 
    {
      "op": "Activation", 
      "name": "stage2_unit2_relu3", 
      "attr": {"act_type": "relu"}, 
      "inputs": [[142, 0, 0]]
    }, 
    {
      "op": "null", 
      "name": "stage2_unit2_conv3_weight", 
      "attr": {
        "kernel": "(1, 1)", 
        "no_bias": "True", 
        "num_filter": "512", 
        "pad": "(0, 0)", 
        "stride": "(1, 1)", 
        "workspace": "512"
      }, 
      "inputs": []
    }, 
    {
      "op": "Convolution", 
      "name": "stage2_unit2_conv3", 
      "attr": {
        "kernel": "(1, 1)", 
        "no_bias": "True", 
        "num_filter": "512", 
        "pad": "(0, 0)", 
        "stride": "(1, 1)", 
        "workspace": "512"
      }, 
      "inputs": [[143, 0, 0], [144, 0, 0]]
    }, 
    {
      "op": "elemwise_add", 
      "name": "_plus4", 
      "inputs": [[145, 0, 0], [121, 0, 0]]
    }, 
    {
      "op": "null", 
      "name": "stage2_unit3_bn1_gamma", 
      "attr": {
        "eps": "2e-05", 
        "fix_gamma": "False", 
        "momentum": "0.9"
      }, 
      "inputs": []
    }, 
    {
      "op": "null", 
      "name": "stage2_unit3_bn1_beta", 
      "attr": {
        "eps": "2e-05", 
        "fix_gamma": "False", 
        "momentum": "0.9"
      }, 
      "inputs": []
    }, 
    {
      "op": "null", 
      "name": "stage2_unit3_bn1_moving_mean", 
      "attr": {
        "__init__": "[\"zero\", {}]", 
        "eps": "2e-05", 
        "fix_gamma": "False", 
        "momentum": "0.9"
      }, 
      "inputs": []
    }, 
    {
      "op": "null", 
      "name": "stage2_unit3_bn1_moving_var", 
      "attr": {
        "__init__": "[\"one\", {}]", 
        "eps": "2e-05", 
        "fix_gamma": "False", 
        "momentum": "0.9"
      }, 
      "inputs": []
    }, 
    {
      "op": "BatchNorm", 
      "name": "stage2_unit3_bn1", 
      "attr": {
        "eps": "2e-05", 
        "fix_gamma": "False", 
        "momentum": "0.9"
      }, 
      "inputs": [[146, 0, 0], [147, 0, 0], [148, 0, 0], [149, 0, 1], [150, 0, 1]]
    }, 
    {
      "op": "Activation", 
      "name": "stage2_unit3_relu1", 
      "attr": {"act_type": "relu"}, 
      "inputs": [[151, 0, 0]]
    }, 
    {
      "op": "null", 
      "name": "stage2_unit3_conv1_weight", 
      "attr": {
        "kernel": "(1, 1)", 
        "no_bias": "True", 
        "num_filter": "128", 
        "pad": "(0, 0)", 
        "stride": "(1, 1)", 
        "workspace": "512"
      }, 
      "inputs": []
    }, 
    {
      "op": "Convolution", 
      "name": "stage2_unit3_conv1", 
      "attr": {
        "kernel": "(1, 1)", 
        "no_bias": "True", 
        "num_filter": "128", 
        "pad": "(0, 0)", 
        "stride": "(1, 1)", 
        "workspace": "512"
      }, 
      "inputs": [[152, 0, 0], [153, 0, 0]]
    }, 
    {
      "op": "null", 
      "name": "stage2_unit3_bn2_gamma", 
      "attr": {
        "eps": "2e-05", 
        "fix_gamma": "False", 
        "momentum": "0.9"
      }, 
      "inputs": []
    }, 
    {
      "op": "null", 
      "name": "stage2_unit3_bn2_beta", 
      "attr": {
        "eps": "2e-05", 
        "fix_gamma": "False", 
        "momentum": "0.9"
      }, 
      "inputs": []
    }, 
    {
      "op": "null", 
      "name": "stage2_unit3_bn2_moving_mean", 
      "attr": {
        "__init__": "[\"zero\", {}]", 
        "eps": "2e-05", 
        "fix_gamma": "False", 
        "momentum": "0.9"
      }, 
      "inputs": []
    }, 
    {
      "op": "null", 
      "name": "stage2_unit3_bn2_moving_var", 
      "attr": {
        "__init__": "[\"one\", {}]", 
        "eps": "2e-05", 
        "fix_gamma": "False", 
        "momentum": "0.9"
      }, 
      "inputs": []
    }, 
    {
      "op": "BatchNorm", 
      "name": "stage2_unit3_bn2", 
      "attr": {
        "eps": "2e-05", 
        "fix_gamma": "False", 
        "momentum": "0.9"
      }, 
      "inputs": [[154, 0, 0], [155, 0, 0], [156, 0, 0], [157, 0, 1], [158, 0, 1]]
    }, 
    {
      "op": "Activation", 
      "name": "stage2_unit3_relu2", 
      "attr": {"act_type": "relu"}, 
      "inputs": [[159, 0, 0]]
    }, 
    {
      "op": "null", 
      "name": "stage2_unit3_conv2_weight", 
      "attr": {
        "kernel": "(3, 3)", 
        "no_bias": "True", 
        "num_filter": "128", 
        "pad": "(1, 1)", 
        "stride": "(1, 1)", 
        "workspace": "512"
      }, 
      "inputs": []
    }, 
    {
      "op": "Convolution", 
      "name": "stage2_unit3_conv2", 
      "attr": {
        "kernel": "(3, 3)", 
        "no_bias": "True", 
        "num_filter": "128", 
        "pad": "(1, 1)", 
        "stride": "(1, 1)", 
        "workspace": "512"
      }, 
      "inputs": [[160, 0, 0], [161, 0, 0]]
    }, 
    {
      "op": "null", 
      "name": "stage2_unit3_bn3_gamma", 
      "attr": {
        "eps": "2e-05", 
        "fix_gamma": "False", 
        "momentum": "0.9"
      }, 
      "inputs": []
    }, 
    {
      "op": "null", 
      "name": "stage2_unit3_bn3_beta", 
      "attr": {
        "eps": "2e-05", 
        "fix_gamma": "False", 
        "momentum": "0.9"
      }, 
      "inputs": []
    }, 
    {
      "op": "null", 
      "name": "stage2_unit3_bn3_moving_mean", 
      "attr": {
        "__init__": "[\"zero\", {}]", 
        "eps": "2e-05", 
        "fix_gamma": "False", 
        "momentum": "0.9"
      }, 
      "inputs": []
    }, 
    {
      "op": "null", 
      "name": "stage2_unit3_bn3_moving_var", 
      "attr": {
        "__init__": "[\"one\", {}]", 
        "eps": "2e-05", 
        "fix_gamma": "False", 
        "momentum": "0.9"
      }, 
      "inputs": []
    }, 
    {
      "op": "BatchNorm", 
      "name": "stage2_unit3_bn3", 
      "attr": {
        "eps": "2e-05", 
        "fix_gamma": "False", 
        "momentum": "0.9"
      }, 
      "inputs": [[162, 0, 0], [163, 0, 0], [164, 0, 0], [165, 0, 1], [166, 0, 1]]
    }, 
    {
      "op": "Activation", 
      "name": "stage2_unit3_relu3", 
      "attr": {"act_type": "relu"}, 
      "inputs": [[167, 0, 0]]
    }, 
    {
      "op": "null", 
      "name": "stage2_unit3_conv3_weight", 
      "attr": {
        "kernel": "(1, 1)", 
        "no_bias": "True", 
        "num_filter": "512", 
        "pad": "(0, 0)", 
        "stride": "(1, 1)", 
        "workspace": "512"
      }, 
      "inputs": []
    }, 
    {
      "op": "Convolution", 
      "name": "stage2_unit3_conv3", 
      "attr": {
        "kernel": "(1, 1)", 
        "no_bias": "True", 
        "num_filter": "512", 
        "pad": "(0, 0)", 
        "stride": "(1, 1)", 
        "workspace": "512"
      }, 
      "inputs": [[168, 0, 0], [169, 0, 0]]
    }, 
    {
      "op": "elemwise_add", 
      "name": "_plus5", 
      "inputs": [[170, 0, 0], [146, 0, 0]]
    }, 
    {
      "op": "null", 
      "name": "stage2_unit4_bn1_gamma", 
      "attr": {
        "eps": "2e-05", 
        "fix_gamma": "False", 
        "momentum": "0.9"
      }, 
      "inputs": []
    }, 
    {
      "op": "null", 
      "name": "stage2_unit4_bn1_beta", 
      "attr": {
        "eps": "2e-05", 
        "fix_gamma": "False", 
        "momentum": "0.9"
      }, 
      "inputs": []
    }, 
    {
      "op": "null", 
      "name": "stage2_unit4_bn1_moving_mean", 
      "attr": {
        "__init__": "[\"zero\", {}]", 
        "eps": "2e-05", 
        "fix_gamma": "False", 
        "momentum": "0.9"
      }, 
      "inputs": []
    }, 
    {
      "op": "null", 
      "name": "stage2_unit4_bn1_moving_var", 
      "attr": {
        "__init__": "[\"one\", {}]", 
        "eps": "2e-05", 
        "fix_gamma": "False", 
        "momentum": "0.9"
      }, 
      "inputs": []
    }, 
    {
      "op": "BatchNorm", 
      "name": "stage2_unit4_bn1", 
      "attr": {
        "eps": "2e-05", 
        "fix_gamma": "False", 
        "momentum": "0.9"
      }, 
      "inputs": [[171, 0, 0], [172, 0, 0], [173, 0, 0], [174, 0, 1], [175, 0, 1]]
    }, 
    {
      "op": "Activation", 
      "name": "stage2_unit4_relu1", 
      "attr": {"act_type": "relu"}, 
      "inputs": [[176, 0, 0]]
    }, 
    {
      "op": "null", 
      "name": "stage2_unit4_conv1_weight", 
      "attr": {
        "kernel": "(1, 1)", 
        "no_bias": "True", 
        "num_filter": "128", 
        "pad": "(0, 0)", 
        "stride": "(1, 1)", 
        "workspace": "512"
      }, 
      "inputs": []
    }, 
    {
      "op": "Convolution", 
      "name": "stage2_unit4_conv1", 
      "attr": {
        "kernel": "(1, 1)", 
        "no_bias": "True", 
        "num_filter": "128", 
        "pad": "(0, 0)", 
        "stride": "(1, 1)", 
        "workspace": "512"
      }, 
      "inputs": [[177, 0, 0], [178, 0, 0]]
    }, 
    {
      "op": "null", 
      "name": "stage2_unit4_bn2_gamma", 
      "attr": {
        "eps": "2e-05", 
        "fix_gamma": "False", 
        "momentum": "0.9"
      }, 
      "inputs": []
    }, 
    {
      "op": "null", 
      "name": "stage2_unit4_bn2_beta", 
      "attr": {
        "eps": "2e-05", 
        "fix_gamma": "False", 
        "momentum": "0.9"
      }, 
      "inputs": []
    }, 
    {
      "op": "null", 
      "name": "stage2_unit4_bn2_moving_mean", 
      "attr": {
        "__init__": "[\"zero\", {}]", 
        "eps": "2e-05", 
        "fix_gamma": "False", 
        "momentum": "0.9"
      }, 
      "inputs": []
    }, 
    {
      "op": "null", 
      "name": "stage2_unit4_bn2_moving_var", 
      "attr": {
        "__init__": "[\"one\", {}]", 
        "eps": "2e-05", 
        "fix_gamma": "False", 
        "momentum": "0.9"
      }, 
      "inputs": []
    }, 
    {
      "op": "BatchNorm", 
      "name": "stage2_unit4_bn2", 
      "attr": {
        "eps": "2e-05", 
        "fix_gamma": "False", 
        "momentum": "0.9"
      }, 
      "inputs": [[179, 0, 0], [180, 0, 0], [181, 0, 0], [182, 0, 1], [183, 0, 1]]
    }, 
    {
      "op": "Activation", 
      "name": "stage2_unit4_relu2", 
      "attr": {"act_type": "relu"}, 
      "inputs": [[184, 0, 0]]
    }, 
    {
      "op": "null", 
      "name": "stage2_unit4_conv2_weight", 
      "attr": {
        "kernel": "(3, 3)", 
        "no_bias": "True", 
        "num_filter": "128", 
        "pad": "(1, 1)", 
        "stride": "(1, 1)", 
        "workspace": "512"
      }, 
      "inputs": []
    }, 
    {
      "op": "Convolution", 
      "name": "stage2_unit4_conv2", 
      "attr": {
        "kernel": "(3, 3)", 
        "no_bias": "True", 
        "num_filter": "128", 
        "pad": "(1, 1)", 
        "stride": "(1, 1)", 
        "workspace": "512"
      }, 
      "inputs": [[185, 0, 0], [186, 0, 0]]
    }, 
    {
      "op": "null", 
      "name": "stage2_unit4_bn3_gamma", 
      "attr": {
        "eps": "2e-05", 
        "fix_gamma": "False", 
        "momentum": "0.9"
      }, 
      "inputs": []
    }, 
    {
      "op": "null", 
      "name": "stage2_unit4_bn3_beta", 
      "attr": {
        "eps": "2e-05", 
        "fix_gamma": "False", 
        "momentum": "0.9"
      }, 
      "inputs": []
    }, 
    {
      "op": "null", 
      "name": "stage2_unit4_bn3_moving_mean", 
      "attr": {
        "__init__": "[\"zero\", {}]", 
        "eps": "2e-05", 
        "fix_gamma": "False", 
        "momentum": "0.9"
      }, 
      "inputs": []
    }, 
    {
      "op": "null", 
      "name": "stage2_unit4_bn3_moving_var", 
      "attr": {
        "__init__": "[\"one\", {}]", 
        "eps": "2e-05", 
        "fix_gamma": "False", 
        "momentum": "0.9"
      }, 
      "inputs": []
    }, 
    {
      "op": "BatchNorm", 
      "name": "stage2_unit4_bn3", 
      "attr": {
        "eps": "2e-05", 
        "fix_gamma": "False", 
        "momentum": "0.9"
      }, 
      "inputs": [[187, 0, 0], [188, 0, 0], [189, 0, 0], [190, 0, 1], [191, 0, 1]]
    }, 
    {
      "op": "Activation", 
      "name": "stage2_unit4_relu3", 
      "attr": {"act_type": "relu"}, 
      "inputs": [[192, 0, 0]]
    }, 
    {
      "op": "null", 
      "name": "stage2_unit4_conv3_weight", 
      "attr": {
        "kernel": "(1, 1)", 
        "no_bias": "True", 
        "num_filter": "512", 
        "pad": "(0, 0)", 
        "stride": "(1, 1)", 
        "workspace": "512"
      }, 
      "inputs": []
    }, 
    {
      "op": "Convolution", 
      "name": "stage2_unit4_conv3", 
      "attr": {
        "kernel": "(1, 1)", 
        "no_bias": "True", 
        "num_filter": "512", 
        "pad": "(0, 0)", 
        "stride": "(1, 1)", 
        "workspace": "512"
      }, 
      "inputs": [[193, 0, 0], [194, 0, 0]]
    }, 
    {
      "op": "elemwise_add", 
      "name": "_plus6", 
      "inputs": [[195, 0, 0], [171, 0, 0]]
    }, 
    {
      "op": "null", 
      "name": "stage3_unit1_bn1_gamma", 
      "attr": {
        "eps": "2e-05", 
        "fix_gamma": "False", 
        "momentum": "0.9"
      }, 
      "inputs": []
    }, 
    {
      "op": "null", 
      "name": "stage3_unit1_bn1_beta", 
      "attr": {
        "eps": "2e-05", 
        "fix_gamma": "False", 
        "momentum": "0.9"
      }, 
      "inputs": []
    }, 
    {
      "op": "null", 
      "name": "stage3_unit1_bn1_moving_mean", 
      "attr": {
        "__init__": "[\"zero\", {}]", 
        "eps": "2e-05", 
        "fix_gamma": "False", 
        "momentum": "0.9"
      }, 
      "inputs": []
    }, 
    {
      "op": "null", 
      "name": "stage3_unit1_bn1_moving_var", 
      "attr": {
        "__init__": "[\"one\", {}]", 
        "eps": "2e-05", 
        "fix_gamma": "False", 
        "momentum": "0.9"
      }, 
      "inputs": []
    }, 
    {
      "op": "BatchNorm", 
      "name": "stage3_unit1_bn1", 
      "attr": {
        "eps": "2e-05", 
        "fix_gamma": "False", 
        "momentum": "0.9"
      }, 
      "inputs": [[196, 0, 0], [197, 0, 0], [198, 0, 0], [199, 0, 1], [200, 0, 1]]
    }, 
    {
      "op": "Activation", 
      "name": "stage3_unit1_relu1", 
      "attr": {"act_type": "relu"}, 
      "inputs": [[201, 0, 0]]
    }, 
    {
      "op": "null", 
      "name": "stage3_unit1_relu1_cls_pred_conv_weight", 
      "attr": {
        "kernel": "(3, 3)", 
        "num_filter": "24", 
        "pad": "(1, 1)", 
        "stride": "(1, 1)"
      }, 
      "inputs": []
    }, 
    {
      "op": "null", 
      "name": "stage3_unit1_relu1_cls_pred_conv_bias", 
      "attr": {
        "__init__": "[\"constant\", {\"value\": 0.0}]", 
        "__lr_mult__": "2.0"
      }, 
      "inputs": []
    }, 
    {
      "op": "Convolution", 
      "name": "stage3_unit1_relu1_cls_pred_conv", 
      "attr": {
        "kernel": "(3, 3)", 
        "num_filter": "24", 
        "pad": "(1, 1)", 
        "stride": "(1, 1)"
      }, 
      "inputs": [[202, 0, 0], [203, 0, 0], [204, 0, 0]]
    }, 
    {
      "op": "transpose", 
      "name": "transpose5", 
      "attr": {"axes": "(0, 2, 3, 1)"}, 
      "inputs": [[205, 0, 0]]
    }, 
    {
      "op": "Flatten", 
      "name": "flatten7", 
      "inputs": [[206, 0, 0]]
    }, 
    {
      "op": "null", 
      "name": "stage3_unit1_conv1_weight", 
      "attr": {
        "kernel": "(1, 1)", 
        "no_bias": "True", 
        "num_filter": "256", 
        "pad": "(0, 0)", 
        "stride": "(1, 1)", 
        "workspace": "512"
      }, 
      "inputs": []
    }, 
    {
      "op": "Convolution", 
      "name": "stage3_unit1_conv1", 
      "attr": {
        "kernel": "(1, 1)", 
        "no_bias": "True", 
        "num_filter": "256", 
        "pad": "(0, 0)", 
        "stride": "(1, 1)", 
        "workspace": "512"
      }, 
      "inputs": [[202, 0, 0], [208, 0, 0]]
    }, 
    {
      "op": "null", 
      "name": "stage3_unit1_bn2_gamma", 
      "attr": {
        "eps": "2e-05", 
        "fix_gamma": "False", 
        "momentum": "0.9"
      }, 
      "inputs": []
    }, 
    {
      "op": "null", 
      "name": "stage3_unit1_bn2_beta", 
      "attr": {
        "eps": "2e-05", 
        "fix_gamma": "False", 
        "momentum": "0.9"
      }, 
      "inputs": []
    }, 
    {
      "op": "null", 
      "name": "stage3_unit1_bn2_moving_mean", 
      "attr": {
        "__init__": "[\"zero\", {}]", 
        "eps": "2e-05", 
        "fix_gamma": "False", 
        "momentum": "0.9"
      }, 
      "inputs": []
    }, 
    {
      "op": "null", 
      "name": "stage3_unit1_bn2_moving_var", 
      "attr": {
        "__init__": "[\"one\", {}]", 
        "eps": "2e-05", 
        "fix_gamma": "False", 
        "momentum": "0.9"
      }, 
      "inputs": []
    }, 
    {
      "op": "BatchNorm", 
      "name": "stage3_unit1_bn2", 
      "attr": {
        "eps": "2e-05", 
        "fix_gamma": "False", 
        "momentum": "0.9"
      }, 
      "inputs": [[209, 0, 0], [210, 0, 0], [211, 0, 0], [212, 0, 1], [213, 0, 1]]
    }, 
    {
      "op": "Activation", 
      "name": "stage3_unit1_relu2", 
      "attr": {"act_type": "relu"}, 
      "inputs": [[214, 0, 0]]
    }, 
    {
      "op": "null", 
      "name": "stage3_unit1_conv2_weight", 
      "attr": {
        "kernel": "(3, 3)", 
        "no_bias": "True", 
        "num_filter": "256", 
        "pad": "(1, 1)", 
        "stride": "(2, 2)", 
        "workspace": "512"
      }, 
      "inputs": []
    }, 
    {
      "op": "Convolution", 
      "name": "stage3_unit1_conv2", 
      "attr": {
        "kernel": "(3, 3)", 
        "no_bias": "True", 
        "num_filter": "256", 
        "pad": "(1, 1)", 
        "stride": "(2, 2)", 
        "workspace": "512"
      }, 
      "inputs": [[215, 0, 0], [216, 0, 0]]
    }, 
    {
      "op": "null", 
      "name": "stage3_unit1_bn3_gamma", 
      "attr": {
        "eps": "2e-05", 
        "fix_gamma": "False", 
        "momentum": "0.9"
      }, 
      "inputs": []
    }, 
    {
      "op": "null", 
      "name": "stage3_unit1_bn3_beta", 
      "attr": {
        "eps": "2e-05", 
        "fix_gamma": "False", 
        "momentum": "0.9"
      }, 
      "inputs": []
    }, 
    {
      "op": "null", 
      "name": "stage3_unit1_bn3_moving_mean", 
      "attr": {
        "__init__": "[\"zero\", {}]", 
        "eps": "2e-05", 
        "fix_gamma": "False", 
        "momentum": "0.9"
      }, 
      "inputs": []
    }, 
    {
      "op": "null", 
      "name": "stage3_unit1_bn3_moving_var", 
      "attr": {
        "__init__": "[\"one\", {}]", 
        "eps": "2e-05", 
        "fix_gamma": "False", 
        "momentum": "0.9"
      }, 
      "inputs": []
    }, 
    {
      "op": "BatchNorm", 
      "name": "stage3_unit1_bn3", 
      "attr": {
        "eps": "2e-05", 
        "fix_gamma": "False", 
        "momentum": "0.9"
      }, 
      "inputs": [[217, 0, 0], [218, 0, 0], [219, 0, 0], [220, 0, 1], [221, 0, 1]]
    }, 
    {
      "op": "Activation", 
      "name": "stage3_unit1_relu3", 
      "attr": {"act_type": "relu"}, 
      "inputs": [[222, 0, 0]]
    }, 
    {
      "op": "null", 
      "name": "stage3_unit1_conv3_weight", 
      "attr": {
        "kernel": "(1, 1)", 
        "no_bias": "True", 
        "num_filter": "1024", 
        "pad": "(0, 0)", 
        "stride": "(1, 1)", 
        "workspace": "512"
      }, 
      "inputs": []
    }, 
    {
      "op": "Convolution", 
      "name": "stage3_unit1_conv3", 
      "attr": {
        "kernel": "(1, 1)", 
        "no_bias": "True", 
        "num_filter": "1024", 
        "pad": "(0, 0)", 
        "stride": "(1, 1)", 
        "workspace": "512"
      }, 
      "inputs": [[223, 0, 0], [224, 0, 0]]
    }, 
    {
      "op": "null", 
      "name": "stage3_unit1_sc_weight", 
      "attr": {
        "kernel": "(1, 1)", 
        "no_bias": "True", 
        "num_filter": "1024", 
        "stride": "(2, 2)", 
        "workspace": "512"
      }, 
      "inputs": []
    }, 
    {
      "op": "Convolution", 
      "name": "stage3_unit1_sc", 
      "attr": {
        "kernel": "(1, 1)", 
        "no_bias": "True", 
        "num_filter": "1024", 
        "stride": "(2, 2)", 
        "workspace": "512"
      }, 
      "inputs": [[202, 0, 0], [226, 0, 0]]
    }, 
    {
      "op": "elemwise_add", 
      "name": "_plus7", 
      "inputs": [[225, 0, 0], [227, 0, 0]]
    }, 
    {
      "op": "null", 
      "name": "stage3_unit2_bn1_gamma", 
      "attr": {
        "eps": "2e-05", 
        "fix_gamma": "False", 
        "momentum": "0.9"
      }, 
      "inputs": []
    }, 
    {
      "op": "null", 
      "name": "stage3_unit2_bn1_beta", 
      "attr": {
        "eps": "2e-05", 
        "fix_gamma": "False", 
        "momentum": "0.9"
      }, 
      "inputs": []
    }, 
    {
      "op": "null", 
      "name": "stage3_unit2_bn1_moving_mean", 
      "attr": {
        "__init__": "[\"zero\", {}]", 
        "eps": "2e-05", 
        "fix_gamma": "False", 
        "momentum": "0.9"
      }, 
      "inputs": []
    }, 
    {
      "op": "null", 
      "name": "stage3_unit2_bn1_moving_var", 
      "attr": {
        "__init__": "[\"one\", {}]", 
        "eps": "2e-05", 
        "fix_gamma": "False", 
        "momentum": "0.9"
      }, 
      "inputs": []
    }, 
    {
      "op": "BatchNorm", 
      "name": "stage3_unit2_bn1", 
      "attr": {
        "eps": "2e-05", 
        "fix_gamma": "False", 
        "momentum": "0.9"
      }, 
      "inputs": [[228, 0, 0], [229, 0, 0], [230, 0, 0], [231, 0, 1], [232, 0, 1]]
    }, 
    {
      "op": "Activation", 
      "name": "stage3_unit2_relu1", 
      "attr": {"act_type": "relu"}, 
      "inputs": [[233, 0, 0]]
    }, 
    {
      "op": "null", 
      "name": "stage3_unit2_conv1_weight", 
      "attr": {
        "kernel": "(1, 1)", 
        "no_bias": "True", 
        "num_filter": "256", 
        "pad": "(0, 0)", 
        "stride": "(1, 1)", 
        "workspace": "512"
      }, 
      "inputs": []
    }, 
    {
      "op": "Convolution", 
      "name": "stage3_unit2_conv1", 
      "attr": {
        "kernel": "(1, 1)", 
        "no_bias": "True", 
        "num_filter": "256", 
        "pad": "(0, 0)", 
        "stride": "(1, 1)", 
        "workspace": "512"
      }, 
      "inputs": [[234, 0, 0], [235, 0, 0]]
    }, 
    {
      "op": "null", 
      "name": "stage3_unit2_bn2_gamma", 
      "attr": {
        "eps": "2e-05", 
        "fix_gamma": "False", 
        "momentum": "0.9"
      }, 
      "inputs": []
    }, 
    {
      "op": "null", 
      "name": "stage3_unit2_bn2_beta", 
      "attr": {
        "eps": "2e-05", 
        "fix_gamma": "False", 
        "momentum": "0.9"
      }, 
      "inputs": []
    }, 
    {
      "op": "null", 
      "name": "stage3_unit2_bn2_moving_mean", 
      "attr": {
        "__init__": "[\"zero\", {}]", 
        "eps": "2e-05", 
        "fix_gamma": "False", 
        "momentum": "0.9"
      }, 
      "inputs": []
    }, 
    {
      "op": "null", 
      "name": "stage3_unit2_bn2_moving_var", 
      "attr": {
        "__init__": "[\"one\", {}]", 
        "eps": "2e-05", 
        "fix_gamma": "False", 
        "momentum": "0.9"
      }, 
      "inputs": []
    }, 
    {
      "op": "BatchNorm", 
      "name": "stage3_unit2_bn2", 
      "attr": {
        "eps": "2e-05", 
        "fix_gamma": "False", 
        "momentum": "0.9"
      }, 
      "inputs": [[236, 0, 0], [237, 0, 0], [238, 0, 0], [239, 0, 1], [240, 0, 1]]
    }, 
    {
      "op": "Activation", 
      "name": "stage3_unit2_relu2", 
      "attr": {"act_type": "relu"}, 
      "inputs": [[241, 0, 0]]
    }, 
    {
      "op": "null", 
      "name": "stage3_unit2_conv2_weight", 
      "attr": {
        "kernel": "(3, 3)", 
        "no_bias": "True", 
        "num_filter": "256", 
        "pad": "(1, 1)", 
        "stride": "(1, 1)", 
        "workspace": "512"
      }, 
      "inputs": []
    }, 
    {
      "op": "Convolution", 
      "name": "stage3_unit2_conv2", 
      "attr": {
        "kernel": "(3, 3)", 
        "no_bias": "True", 
        "num_filter": "256", 
        "pad": "(1, 1)", 
        "stride": "(1, 1)", 
        "workspace": "512"
      }, 
      "inputs": [[242, 0, 0], [243, 0, 0]]
    }, 
    {
      "op": "null", 
      "name": "stage3_unit2_bn3_gamma", 
      "attr": {
        "eps": "2e-05", 
        "fix_gamma": "False", 
        "momentum": "0.9"
      }, 
      "inputs": []
    }, 
    {
      "op": "null", 
      "name": "stage3_unit2_bn3_beta", 
      "attr": {
        "eps": "2e-05", 
        "fix_gamma": "False", 
        "momentum": "0.9"
      }, 
      "inputs": []
    }, 
    {
      "op": "null", 
      "name": "stage3_unit2_bn3_moving_mean", 
      "attr": {
        "__init__": "[\"zero\", {}]", 
        "eps": "2e-05", 
        "fix_gamma": "False", 
        "momentum": "0.9"
      }, 
      "inputs": []
    }, 
    {
      "op": "null", 
      "name": "stage3_unit2_bn3_moving_var", 
      "attr": {
        "__init__": "[\"one\", {}]", 
        "eps": "2e-05", 
        "fix_gamma": "False", 
        "momentum": "0.9"
      }, 
      "inputs": []
    }, 
    {
      "op": "BatchNorm", 
      "name": "stage3_unit2_bn3", 
      "attr": {
        "eps": "2e-05", 
        "fix_gamma": "False", 
        "momentum": "0.9"
      }, 
      "inputs": [[244, 0, 0], [245, 0, 0], [246, 0, 0], [247, 0, 1], [248, 0, 1]]
    }, 
    {
      "op": "Activation", 
      "name": "stage3_unit2_relu3", 
      "attr": {"act_type": "relu"}, 
      "inputs": [[249, 0, 0]]
    }, 
    {
      "op": "null", 
      "name": "stage3_unit2_conv3_weight", 
      "attr": {
        "kernel": "(1, 1)", 
        "no_bias": "True", 
        "num_filter": "1024", 
        "pad": "(0, 0)", 
        "stride": "(1, 1)", 
        "workspace": "512"
      }, 
      "inputs": []
    }, 
    {
      "op": "Convolution", 
      "name": "stage3_unit2_conv3", 
      "attr": {
        "kernel": "(1, 1)", 
        "no_bias": "True", 
        "num_filter": "1024", 
        "pad": "(0, 0)", 
        "stride": "(1, 1)", 
        "workspace": "512"
      }, 
      "inputs": [[250, 0, 0], [251, 0, 0]]
    }, 
    {
      "op": "elemwise_add", 
      "name": "_plus8", 
      "inputs": [[252, 0, 0], [228, 0, 0]]
    }, 
    {
      "op": "null", 
      "name": "stage3_unit3_bn1_gamma", 
      "attr": {
        "eps": "2e-05", 
        "fix_gamma": "False", 
        "momentum": "0.9"
      }, 
      "inputs": []
    }, 
    {
      "op": "null", 
      "name": "stage3_unit3_bn1_beta", 
      "attr": {
        "eps": "2e-05", 
        "fix_gamma": "False", 
        "momentum": "0.9"
      }, 
      "inputs": []
    }, 
    {
      "op": "null", 
      "name": "stage3_unit3_bn1_moving_mean", 
      "attr": {
        "__init__": "[\"zero\", {}]", 
        "eps": "2e-05", 
        "fix_gamma": "False", 
        "momentum": "0.9"
      }, 
      "inputs": []
    }, 
    {
      "op": "null", 
      "name": "stage3_unit3_bn1_moving_var", 
      "attr": {
        "__init__": "[\"one\", {}]", 
        "eps": "2e-05", 
        "fix_gamma": "False", 
        "momentum": "0.9"
      }, 
      "inputs": []
    }, 
    {
      "op": "BatchNorm", 
      "name": "stage3_unit3_bn1", 
      "attr": {
        "eps": "2e-05", 
        "fix_gamma": "False", 
        "momentum": "0.9"
      }, 
      "inputs": [[253, 0, 0], [254, 0, 0], [255, 0, 0], [256, 0, 1], [257, 0, 1]]
    }, 
    {
      "op": "Activation", 
      "name": "stage3_unit3_relu1", 
      "attr": {"act_type": "relu"}, 
      "inputs": [[258, 0, 0]]
    }, 
    {
      "op": "null", 
      "name": "stage3_unit3_conv1_weight", 
      "attr": {
        "kernel": "(1, 1)", 
        "no_bias": "True", 
        "num_filter": "256", 
        "pad": "(0, 0)", 
        "stride": "(1, 1)", 
        "workspace": "512"
      }, 
      "inputs": []
    }, 
    {
      "op": "Convolution", 
      "name": "stage3_unit3_conv1", 
      "attr": {
        "kernel": "(1, 1)", 
        "no_bias": "True", 
        "num_filter": "256", 
        "pad": "(0, 0)", 
        "stride": "(1, 1)", 
        "workspace": "512"
      }, 
      "inputs": [[259, 0, 0], [260, 0, 0]]
    }, 
    {
      "op": "null", 
      "name": "stage3_unit3_bn2_gamma", 
      "attr": {
        "eps": "2e-05", 
        "fix_gamma": "False", 
        "momentum": "0.9"
      }, 
      "inputs": []
    }, 
    {
      "op": "null", 
      "name": "stage3_unit3_bn2_beta", 
      "attr": {
        "eps": "2e-05", 
        "fix_gamma": "False", 
        "momentum": "0.9"
      }, 
      "inputs": []
    }, 
    {
      "op": "null", 
      "name": "stage3_unit3_bn2_moving_mean", 
      "attr": {
        "__init__": "[\"zero\", {}]", 
        "eps": "2e-05", 
        "fix_gamma": "False", 
        "momentum": "0.9"
      }, 
      "inputs": []
    }, 
    {
      "op": "null", 
      "name": "stage3_unit3_bn2_moving_var", 
      "attr": {
        "__init__": "[\"one\", {}]", 
        "eps": "2e-05", 
        "fix_gamma": "False", 
        "momentum": "0.9"
      }, 
      "inputs": []
    }, 
    {
      "op": "BatchNorm", 
      "name": "stage3_unit3_bn2", 
      "attr": {
        "eps": "2e-05", 
        "fix_gamma": "False", 
        "momentum": "0.9"
      }, 
      "inputs": [[261, 0, 0], [262, 0, 0], [263, 0, 0], [264, 0, 1], [265, 0, 1]]
    }, 
    {
      "op": "Activation", 
      "name": "stage3_unit3_relu2", 
      "attr": {"act_type": "relu"}, 
      "inputs": [[266, 0, 0]]
    }, 
    {
      "op": "null", 
      "name": "stage3_unit3_conv2_weight", 
      "attr": {
        "kernel": "(3, 3)", 
        "no_bias": "True", 
        "num_filter": "256", 
        "pad": "(1, 1)", 
        "stride": "(1, 1)", 
        "workspace": "512"
      }, 
      "inputs": []
    }, 
    {
      "op": "Convolution", 
      "name": "stage3_unit3_conv2", 
      "attr": {
        "kernel": "(3, 3)", 
        "no_bias": "True", 
        "num_filter": "256", 
        "pad": "(1, 1)", 
        "stride": "(1, 1)", 
        "workspace": "512"
      }, 
      "inputs": [[267, 0, 0], [268, 0, 0]]
    }, 
    {
      "op": "null", 
      "name": "stage3_unit3_bn3_gamma", 
      "attr": {
        "eps": "2e-05", 
        "fix_gamma": "False", 
        "momentum": "0.9"
      }, 
      "inputs": []
    }, 
    {
      "op": "null", 
      "name": "stage3_unit3_bn3_beta", 
      "attr": {
        "eps": "2e-05", 
        "fix_gamma": "False", 
        "momentum": "0.9"
      }, 
      "inputs": []
    }, 
    {
      "op": "null", 
      "name": "stage3_unit3_bn3_moving_mean", 
      "attr": {
        "__init__": "[\"zero\", {}]", 
        "eps": "2e-05", 
        "fix_gamma": "False", 
        "momentum": "0.9"
      }, 
      "inputs": []
    }, 
    {
      "op": "null", 
      "name": "stage3_unit3_bn3_moving_var", 
      "attr": {
        "__init__": "[\"one\", {}]", 
        "eps": "2e-05", 
        "fix_gamma": "False", 
        "momentum": "0.9"
      }, 
      "inputs": []
    }, 
    {
      "op": "BatchNorm", 
      "name": "stage3_unit3_bn3", 
      "attr": {
        "eps": "2e-05", 
        "fix_gamma": "False", 
        "momentum": "0.9"
      }, 
      "inputs": [[269, 0, 0], [270, 0, 0], [271, 0, 0], [272, 0, 1], [273, 0, 1]]
    }, 
    {
      "op": "Activation", 
      "name": "stage3_unit3_relu3", 
      "attr": {"act_type": "relu"}, 
      "inputs": [[274, 0, 0]]
    }, 
    {
      "op": "null", 
      "name": "stage3_unit3_conv3_weight", 
      "attr": {
        "kernel": "(1, 1)", 
        "no_bias": "True", 
        "num_filter": "1024", 
        "pad": "(0, 0)", 
        "stride": "(1, 1)", 
        "workspace": "512"
      }, 
      "inputs": []
    }, 
    {
      "op": "Convolution", 
      "name": "stage3_unit3_conv3", 
      "attr": {
        "kernel": "(1, 1)", 
        "no_bias": "True", 
        "num_filter": "1024", 
        "pad": "(0, 0)", 
        "stride": "(1, 1)", 
        "workspace": "512"
      }, 
      "inputs": [[275, 0, 0], [276, 0, 0]]
    }, 
    {
      "op": "elemwise_add", 
      "name": "_plus9", 
      "inputs": [[277, 0, 0], [253, 0, 0]]
    }, 
    {
      "op": "null", 
      "name": "xbn1_gamma", 
      "attr": {
        "eps": "2e-05", 
        "fix_gamma": "False", 
        "momentum": "0.9"
      }, 
      "inputs": []
    }, 
    {
      "op": "null", 
      "name": "xbn1_beta", 
      "attr": {
        "eps": "2e-05", 
        "fix_gamma": "False", 
        "momentum": "0.9"
      }, 
      "inputs": []
    }, 
    {
      "op": "null", 
      "name": "xbn1_moving_mean", 
      "attr": {
        "__init__": "[\"zero\", {}]", 
        "eps": "2e-05", 
        "fix_gamma": "False", 
        "momentum": "0.9"
      }, 
      "inputs": []
    }, 
    {
      "op": "null", 
      "name": "xbn1_moving_var", 
      "attr": {
        "__init__": "[\"one\", {}]", 
        "eps": "2e-05", 
        "fix_gamma": "False", 
        "momentum": "0.9"
      }, 
      "inputs": []
    }, 
    {
      "op": "BatchNorm", 
      "name": "xbn1", 
      "attr": {
        "eps": "2e-05", 
        "fix_gamma": "False", 
        "momentum": "0.9"
      }, 
      "inputs": [[278, 0, 0], [279, 0, 0], [280, 0, 0], [281, 0, 1], [282, 0, 1]]
    }, 
    {
      "op": "Activation", 
      "name": "xrelu1", 
      "attr": {"act_type": "relu"}, 
      "inputs": [[283, 0, 0]]
    }, 
    {
      "op": "null", 
      "name": "xrelu1_cls_pred_conv_weight", 
      "attr": {
        "kernel": "(3, 3)", 
        "num_filter": "24", 
        "pad": "(1, 1)", 
        "stride": "(1, 1)"
      }, 
      "inputs": []
    }, 
    {
      "op": "null", 
      "name": "xrelu1_cls_pred_conv_bias", 
      "attr": {
        "__init__": "[\"constant\", {\"value\": 0.0}]", 
        "__lr_mult__": "2.0"
      }, 
      "inputs": []
    }, 
    {
      "op": "Convolution", 
      "name": "xrelu1_cls_pred_conv", 
      "attr": {
        "kernel": "(3, 3)", 
        "num_filter": "24", 
        "pad": "(1, 1)", 
        "stride": "(1, 1)"
      }, 
      "inputs": [[284, 0, 0], [285, 0, 0], [286, 0, 0]]
    }, 
    {
      "op": "transpose", 
      "name": "transpose7", 
      "attr": {"axes": "(0, 2, 3, 1)"}, 
      "inputs": [[287, 0, 0]]
    }, 
    {
      "op": "Flatten", 
      "name": "flatten10", 
      "inputs": [[288, 0, 0]]
    }, 
    {
      "op": "Concat", 
      "name": "concat0", 
      "attr": {
        "dim": "1", 
        "num_args": "4"
      }, 
      "inputs": [[18, 0, 0], [100, 0, 0], [207, 0, 0], [289, 0, 0]]
    }, 
    {
      "op": "Reshape", 
      "name": "reshape0", 
      "attr": {"shape": "(0, -1, 4)"}, 
      "inputs": [[290, 0, 0]]
    }, 
    {
      "op": "transpose", 
      "name": "multibox_cls_pred", 
      "attr": {"axes": "(0, 2, 1)"}, 
      "inputs": [[291, 0, 0]]
    }, 
    {
      "op": "_contrib_MultiBoxPrior", 
      "name": "stage1_unit1_relu1_anchors", 
      "attr": {
        "clip": "False", 
        "ratios": "(1.0,2.0,0.5,3.0,0.333333333333)", 
        "sizes": "(0.01,0.0141)", 
        "steps": "(0.02666666666666667, 0.02666666666666667)"
      }, 
      "inputs": [[13, 0, 0]]
    }, 
    {
      "op": "Flatten", 
      "name": "flatten2", 
      "inputs": [[293, 0, 0]]
    }, 
    {
      "op": "_contrib_MultiBoxPrior", 
      "name": "stage2_unit1_relu1_anchors", 
      "attr": {
        "clip": "False", 
        "ratios": "(1.0,2.0,0.5,3.0,0.333333333333)", 
        "sizes": "(0.02,0.0316)", 
        "steps": "(0.05333333333333334, 0.05333333333333334)"
      }, 
      "inputs": [[95, 0, 0]]
    }, 
    {
      "op": "Flatten", 
      "name": "flatten5", 
      "inputs": [[295, 0, 0]]
    }, 
    {
      "op": "_contrib_MultiBoxPrior", 
      "name": "stage3_unit1_relu1_anchors", 
      "attr": {
        "clip": "False", 
        "ratios": "(1.0,2.0,0.5,3.0,0.333333333333)", 
        "sizes": "(0.05,0.0707)", 
        "steps": "(0.10666666666666667, 0.10666666666666667)"
      }, 
      "inputs": [[202, 0, 0]]
    }, 
    {
      "op": "Flatten", 
      "name": "flatten8", 
      "inputs": [[297, 0, 0]]
    }, 
    {
      "op": "_contrib_MultiBoxPrior", 
      "name": "xrelu1_anchors", 
      "attr": {
        "clip": "False", 
        "ratios": "(1.0,2.0,0.5,3.0,0.333333333333)", 
        "sizes": "(0.1,0.141)", 
        "steps": "(0.21333333333333335, 0.21333333333333335)"
      }, 
      "inputs": [[284, 0, 0]]
    }, 
    {
      "op": "Flatten", 
      "name": "flatten11", 
      "inputs": [[299, 0, 0]]
    }, 
    {
      "op": "Concat", 
      "name": "concat1", 
      "attr": {
        "dim": "1", 
        "num_args": "4"
      }, 
      "inputs": [[294, 0, 0], [296, 0, 0], [298, 0, 0], [300, 0, 0]]
    }, 
    {
      "op": "Reshape", 
      "name": "multibox_anchors", 
      "attr": {"shape": "(0, -1, 4)"}, 
      "inputs": [[301, 0, 0]]
    }, 
    {
      "op": "null", 
      "name": "label", 
      "inputs": []
    }, 
    {
      "op": "_contrib_MultiBoxTarget", 
      "name": "multibox_target", 
      "attr": {
        "ignore_label": "-1", 
        "minimum_negative_samples": "0", 
        "negative_mining_ratio": "3", 
        "negative_mining_thresh": "0.5", 
        "overlap_threshold": "0.5", 
        "variances": "(0.1, 0.1, 0.2, 0.2)"
      }, 
      "inputs": [[302, 0, 0], [303, 0, 0], [292, 0, 0]]
    }, 
    {
      "op": "SoftmaxOutput", 
      "name": "cls_prob", 
      "attr": {
        "grad_scale": "1.0", 
        "ignore_label": "-1", 
        "multi_output": "True", 
        "normalization": "valid", 
        "use_ignore": "True"
      }, 
      "inputs": [[292, 0, 0], [304, 2, 0]]
    }, 
    {
      "op": "null", 
      "name": "stage1_unit1_relu1_loc_pred_conv_weight", 
      "attr": {
        "kernel": "(3, 3)", 
        "num_filter": "24", 
        "pad": "(1, 1)", 
        "stride": "(1, 1)"
      }, 
      "inputs": []
    }, 
    {
      "op": "null", 
      "name": "stage1_unit1_relu1_loc_pred_conv_bias", 
      "attr": {
        "__init__": "[\"constant\", {\"value\": 0.0}]", 
        "__lr_mult__": "2.0"
      }, 
      "inputs": []
    }, 
    {
      "op": "Convolution", 
      "name": "stage1_unit1_relu1_loc_pred_conv", 
      "attr": {
        "kernel": "(3, 3)", 
        "num_filter": "24", 
        "pad": "(1, 1)", 
        "stride": "(1, 1)"
      }, 
      "inputs": [[13, 0, 0], [306, 0, 0], [307, 0, 0]]
    }, 
    {
      "op": "transpose", 
      "name": "transpose0", 
      "attr": {"axes": "(0, 2, 3, 1)"}, 
      "inputs": [[308, 0, 0]]
    }, 
    {
      "op": "Flatten", 
      "name": "flatten0", 
      "inputs": [[309, 0, 0]]
    }, 
    {
      "op": "null", 
      "name": "stage2_unit1_relu1_loc_pred_conv_weight", 
      "attr": {
        "kernel": "(3, 3)", 
        "num_filter": "24", 
        "pad": "(1, 1)", 
        "stride": "(1, 1)"
      }, 
      "inputs": []
    }, 
    {
      "op": "null", 
      "name": "stage2_unit1_relu1_loc_pred_conv_bias", 
      "attr": {
        "__init__": "[\"constant\", {\"value\": 0.0}]", 
        "__lr_mult__": "2.0"
      }, 
      "inputs": []
    }, 
    {
      "op": "Convolution", 
      "name": "stage2_unit1_relu1_loc_pred_conv", 
      "attr": {
        "kernel": "(3, 3)", 
        "num_filter": "24", 
        "pad": "(1, 1)", 
        "stride": "(1, 1)"
      }, 
      "inputs": [[95, 0, 0], [311, 0, 0], [312, 0, 0]]
    }, 
    {
      "op": "transpose", 
      "name": "transpose2", 
      "attr": {"axes": "(0, 2, 3, 1)"}, 
      "inputs": [[313, 0, 0]]
    }, 
    {
      "op": "Flatten", 
      "name": "flatten3", 
      "inputs": [[314, 0, 0]]
    }, 
    {
      "op": "null", 
      "name": "stage3_unit1_relu1_loc_pred_conv_weight", 
      "attr": {
        "kernel": "(3, 3)", 
        "num_filter": "24", 
        "pad": "(1, 1)", 
        "stride": "(1, 1)"
      }, 
      "inputs": []
    }, 
    {
      "op": "null", 
      "name": "stage3_unit1_relu1_loc_pred_conv_bias", 
      "attr": {
        "__init__": "[\"constant\", {\"value\": 0.0}]", 
        "__lr_mult__": "2.0"
      }, 
      "inputs": []
    }, 
    {
      "op": "Convolution", 
      "name": "stage3_unit1_relu1_loc_pred_conv", 
      "attr": {
        "kernel": "(3, 3)", 
        "num_filter": "24", 
        "pad": "(1, 1)", 
        "stride": "(1, 1)"
      }, 
      "inputs": [[202, 0, 0], [316, 0, 0], [317, 0, 0]]
    }, 
    {
      "op": "transpose", 
      "name": "transpose4", 
      "attr": {"axes": "(0, 2, 3, 1)"}, 
      "inputs": [[318, 0, 0]]
    }, 
    {
      "op": "Flatten", 
      "name": "flatten6", 
      "inputs": [[319, 0, 0]]
    }, 
    {
      "op": "null", 
      "name": "xrelu1_loc_pred_conv_weight", 
      "attr": {
        "kernel": "(3, 3)", 
        "num_filter": "24", 
        "pad": "(1, 1)", 
        "stride": "(1, 1)"
      }, 
      "inputs": []
    }, 
    {
      "op": "null", 
      "name": "xrelu1_loc_pred_conv_bias", 
      "attr": {
        "__init__": "[\"constant\", {\"value\": 0.0}]", 
        "__lr_mult__": "2.0"
      }, 
      "inputs": []
    }, 
    {
      "op": "Convolution", 
      "name": "xrelu1_loc_pred_conv", 
      "attr": {
        "kernel": "(3, 3)", 
        "num_filter": "24", 
        "pad": "(1, 1)", 
        "stride": "(1, 1)"
      }, 
      "inputs": [[284, 0, 0], [321, 0, 0], [322, 0, 0]]
    }, 
    {
      "op": "transpose", 
      "name": "transpose6", 
      "attr": {"axes": "(0, 2, 3, 1)"}, 
      "inputs": [[323, 0, 0]]
    }, 
    {
      "op": "Flatten", 
      "name": "flatten9", 
      "inputs": [[324, 0, 0]]
    }, 
    {
      "op": "Concat", 
      "name": "multibox_loc_pred", 
      "attr": {
        "dim": "1", 
        "num_args": "4"
      }, 
      "inputs": [[310, 0, 0], [315, 0, 0], [320, 0, 0], [325, 0, 0]]
    }, 
    {
      "op": "_sub", 
      "name": "_minus0", 
      "inputs": [[326, 0, 0], [304, 0, 0]]
    }, 
    {
      "op": "_mul", 
      "name": "_mul0", 
      "inputs": [[304, 1, 0], [327, 0, 0]]
    }, 
    {
      "op": "smooth_l1", 
      "name": "loc_loss_", 
      "attr": {"scalar": "1.0"}, 
      "inputs": [[328, 0, 0]]
    }, 
    {
      "op": "MakeLoss", 
      "name": "loc_loss", 
      "attr": {
        "grad_scale": "1.0", 
        "normalization": "valid"
      }, 
      "inputs": [[329, 0, 0]]
    }, 
    {
      "op": "MakeLoss", 
      "name": "cls_label", 
      "attr": {"grad_scale": "0"}, 
      "inputs": [[304, 2, 0]]
    }, 
    {
      "op": "_contrib_MultiBoxDetection", 
      "name": "detection", 
      "attr": {
        "force_suppress": "False", 
        "nms_threshold": "0.5", 
        "nms_topk": "400", 
        "variances": "(0.1, 0.1, 0.2, 0.2)"
      }, 
      "inputs": [[305, 0, 0], [326, 0, 0], [302, 0, 0]]
    }, 
    {
      "op": "MakeLoss", 
      "name": "det_out", 
      "attr": {"grad_scale": "0"}, 
      "inputs": [[332, 0, 0]]
    }
  ], 
  "arg_nodes": [
    0, 
    1, 
    2, 
    3, 
    4, 
    6, 
    8, 
    9, 
    10, 
    11, 
    14, 
    15, 
    19, 
    21, 
    22, 
    23, 
    24, 
    27, 
    29, 
    30, 
    31, 
    32, 
    35, 
    37, 
    40, 
    41, 
    42, 
    43, 
    46, 
    48, 
    49, 
    50, 
    51, 
    54, 
    56, 
    57, 
    58, 
    59, 
    62, 
    65, 
    66, 
    67, 
    68, 
    71, 
    73, 
    74, 
    75, 
    76, 
    79, 
    81, 
    82, 
    83, 
    84, 
    87, 
    90, 
    91, 
    92, 
    93, 
    96, 
    97, 
    101, 
    103, 
    104, 
    105, 
    106, 
    109, 
    111, 
    112, 
    113, 
    114, 
    117, 
    119, 
    122, 
    123, 
    124, 
    125, 
    128, 
    130, 
    131, 
    132, 
    133, 
    136, 
    138, 
    139, 
    140, 
    141, 
    144, 
    147, 
    148, 
    149, 
    150, 
    153, 
    155, 
    156, 
    157, 
    158, 
    161, 
    163, 
    164, 
    165, 
    166, 
    169, 
    172, 
    173, 
    174, 
    175, 
    178, 
    180, 
    181, 
    182, 
    183, 
    186, 
    188, 
    189, 
    190, 
    191, 
    194, 
    197, 
    198, 
    199, 
    200, 
    203, 
    204, 
    208, 
    210, 
    211, 
    212, 
    213, 
    216, 
    218, 
    219, 
    220, 
    221, 
    224, 
    226, 
    229, 
    230, 
    231, 
    232, 
    235, 
    237, 
    238, 
    239, 
    240, 
    243, 
    245, 
    246, 
    247, 
    248, 
    251, 
    254, 
    255, 
    256, 
    257, 
    260, 
    262, 
    263, 
    264, 
    265, 
    268, 
    270, 
    271, 
    272, 
    273, 
    276, 
    279, 
    280, 
    281, 
    282, 
    285, 
    286, 
    303, 
    306, 
    307, 
    311, 
    312, 
    316, 
    317, 
    321, 
    322
  ], 
  "node_row_ptr": [
    0, 
    1, 
    2, 
    3, 
    4, 
    5, 
    8, 
    9, 
    10, 
    11, 
    12, 
    13, 
    14, 
    17, 
    18, 
    19, 
    20, 
    21, 
    22, 
    23, 
    24, 
    25, 
    26, 
    27, 
    28, 
    29, 
    32, 
    33, 
    34, 
    35, 
    36, 
    37, 
    38, 
    39, 
    42, 
    43, 
    44, 
    45, 
    46, 
    47, 
    48, 
    49, 
    50, 
    51, 
    52, 
    55, 
    56, 
    57, 
    58, 
    59, 
    60, 
    61, 
    62, 
    65, 
    66, 
    67, 
    68, 
    69, 
    70, 
    71, 
    72, 
    75, 
    76, 
    77, 
    78, 
    79, 
    80, 
    81, 
    82, 
    83, 
    86, 
    87, 
    88, 
    89, 
    90, 
    91, 
    92, 
    93, 
    96, 
    97, 
    98, 
    99, 
    100, 
    101, 
    102, 
    103, 
    106, 
    107, 
    108, 
    109, 
    110, 
    111, 
    112, 
    113, 
    114, 
    117, 
    118, 
    119, 
    120, 
    121, 
    122, 
    123, 
    124, 
    125, 
    126, 
    127, 
    128, 
    129, 
    132, 
    133, 
    134, 
    135, 
    136, 
    137, 
    138, 
    139, 
    142, 
    143, 
    144, 
    145, 
    146, 
    147, 
    148, 
    149, 
    150, 
    151, 
    152, 
    155, 
    156, 
    157, 
    158, 
    159, 
    160, 
    161, 
    162, 
    165, 
    166, 
    167, 
    168, 
    169, 
    170, 
    171, 
    172, 
    175, 
    176, 
    177, 
    178, 
    179, 
    180, 
    181, 
    182, 
    183, 
    186, 
    187, 
    188, 
    189, 
    190, 
    191, 
    192, 
    193, 
    196, 
    197, 
    198, 
    199, 
    200, 
    201, 
    202, 
    203, 
    206, 
    207, 
    208, 
    209, 
    210, 
    211, 
    212, 
    213, 
    214, 
    217, 
    218, 
    219, 
    220, 
    221, 
    222, 
    223, 
    224, 
    227, 
    228, 
    229, 
    230, 
    231, 
    232, 
    233, 
    234, 
    237, 
    238, 
    239, 
    240, 
    241, 
    242, 
    243, 
    244, 
    245, 
    248, 
    249, 
    250, 
    251, 
    252, 
    253, 
    254, 
    255, 
    256, 
    257, 
    258, 
    259, 
    260, 
    263, 
    264, 
    265, 
    266, 
    267, 
    268, 
    269, 
    270, 
    273, 
    274, 
    275, 
    276, 
    277, 
    278, 
    279, 
    280, 
    281, 
    282, 
    283, 
    286, 
    287, 
    288, 
    289, 
    290, 
    291, 
    292, 
    293, 
    296, 
    297, 
    298, 
    299, 
    300, 
    301, 
    302, 
    303, 
    306, 
    307, 
    308, 
    309, 
    310, 
    311, 
    312, 
    313, 
    314, 
    317, 
    318, 
    319, 
    320, 
    321, 
    322, 
    323, 
    324, 
    327, 
    328, 
    329, 
    330, 
    331, 
    332, 
    333, 
    334, 
    337, 
    338, 
    339, 
    340, 
    341, 
    342, 
    343, 
    344, 
    345, 
    348, 
    349, 
    350, 
    351, 
    352, 
    353, 
    354, 
    355, 
    356, 
    357, 
    358, 
    359, 
    360, 
    361, 
    362, 
    363, 
    364, 
    365, 
    366, 
    367, 
    368, 
    371, 
    372, 
    373, 
    374, 
    375, 
    376, 
    377, 
    378, 
    379, 
    380, 
    381, 
    382, 
    383, 
    384, 
    385, 
    386, 
    387, 
    388, 
    389, 
    390, 
    391, 
    392, 
    393, 
    394, 
    395, 
    396, 
    397, 
    398, 
    399, 
    400
  ], 
  "heads": [[305, 0, 0], [330, 0, 0], [331, 0, 0], [333, 0, 0]], 
  "attrs": {"mxnet_version": ["int", 905]}
}